src/patrol_algorithms_cdc2023/patrol_algorithms_cdc2023/actor_agent0.pt (torch, 489920 bytes, 14 tensors)

base.cnn.cnn.0.weight f4 [32, 40, 3, 3]
00000000: b01b 133d ebce 16be df0f d13d ebb8 713a
00000010: c557 c2bd afaf 3d3e 09d9 073e d011 d03d
00000020: f076 e4bc a8d7 14bd 47a0 b1bc 134b f2bd
00000030: b84e 28be d617 1d3d e397 ca3d 7f7d e3bd
00000040: 77d4 28bd 70d7 9b3b d857 303e db18 15bf
00000050: 03c7 63be 711e cebc ff0d abbe b7d3 e4bc
00000060: fcd3 0cbd c972 d33d 597c 55bd 16fa b9bc
00000070: a39f 8abd d20e 273c 33d3 23bd ade2 fe3c
00000080: 1c59 983e 4f8a 9fbd 8745 d93d aeb6 e53e
00000090: 58ed 0cbd 7cb5 a43d 6801 9f3d c7e2 1fbb
000000a0: e1f1 39be 44f6 e9bc 5770 be3c 421f 0abe
000000b0: e247 2cbd 97f1 303e e733 b23e 765e 763d
000000c0: b886 c83d 6f36 e23d bf0c 8fbd 55f3 973b
000000d0: 01d1 31be 9d7c 1cbe 2720 3bbe 00f1 033e
000000e0: 5a47 0cbe 414d 1e3d 8b6a 803d ebb9 a33c
000000f0: 5fa2 ee3d 03e8 c4bd 6798 35be d625 5dbd
00000100: ee5b 8dbd 00e7 62bd 03f5 73bd f43e 1bbc
00000110: 86ad 8f3d 0802 b3bd f2f6 e63e a137 2d3e
00000120: 4a22 ae3d af90 1c3f 8b9e 993e 009c e03c
00000130: 1d20 8abe 846b 82bd d6ad 32bb 2dda fe3c
00000140: 1f2c 3cbe b478 0b3e 320c d8bb 139f 55be
00000150: 04ae 3cbe 6b73 663e bad1 8b3e 6d53 993d
00000160: 2e9a b33d 45c2 2bbc b92b 80bd 9e9b 04bd
00000170: 4f48 12bc fbf8 c73c d06c acbd 8e8d 813c
00000180: 1ea6 f63b 90e7 b43d 75ef 9d3d 5dea 0abe
00000190: 8074 5f3e 50cb 03be 4692 d13d 4b0f aebd
000001a0: aaa4 85bc 4263 943a 5c37 993e 81c4 0d3d
000001b0: 4bbd a83a 5460 abbe 54aa 7bbe aa6f 203e
000001c0: 2eaa 1dbe 1ae5 033e fce5 603d efee 413f
000001d0: fc02 5e3d 2c1d a43d 0541 8e3d 4ded afbd
000001e0: 9132 793d 896b 1bbe 20d9 5ebd 30ab 8abd
000001f0: a59e 52be 34ff 40bd 66b7 b3bd 75f3 dd3c
00000200: e7c3 6abd 6be2 e53c 8d69 fd3d 3296 003e
00000210: ca29 8b3c 3336 463b 2f1d 47be 905b ac3d
00000220: e130 c5be 4970 f4bc f304 a03d 7af1 183e
00000230: e53c 40ba 27ef f2bb c95f f63e a960 48bd
00000240: 2cae 06be dc48 6c3f 3b58 943d 594d 51bb
00000250: ac7c 6dbe b2a1 01be a2ce 2d3c 3f28 723e
00000260: d68c 863d d607 653d b120 963d e438 35be
00000270: 34b5 afbd e271 19be b453 dcbd ddd3 7d3d
00000280: f142 73be 02f7 a7be a195 55bd d38d db3d
00000290: da7c 113e fb02 f1bd af97 ae3d d785 e9bd
000002a0: ff7e 853a d715 05bd 55d8 92be aafe b1bd
000002b0: f131 863f 2379 9b3d 865e b13d 6f7c e9bd
000002c0: 3c18 4ebd b07b b7bd 6204 123e 7273 cdbc
000002d0: 5a70 5a3a b1c0 16be 9679 fbbd 6c46 293d
000002e0: 2cf3 1abd 0d17 df3d 63aa 8fbc 03be a63e
000002f0: 1b38 473d b16e babd f24e 323e e0ef d13d
00000300: f54e 803d f499 fb3c c7fd 17be eee2 863d
00000310: bd02 49be 4157 20be e544 91bd 9e8c 7c3e
00000320: 98f7 dc3d 32dc 8b3d e2d9 3c3e 8fe4 e8bd
00000330: e5a4 af3d 8746 8dbe 46b8 60be d0c5 f63d
00000340: 10a0 16be 920d 58bd 5b1d 9c3d 2c85 d5bd
00000350: 9ead 453e 630b 13bd 7d9e b23f 42cf 923e
00000360: 142d 303c 9c7a b53d 8ffc fbbd 778c 7dbd
00000370: dbc8 d43e 5b4c 923e ada3 15be 8417 5abb
00000380: 6acf 60bd 5346 02bd 4d46 92bd 17c2 ed3c
00000390: 15c6 9bbc 3f6d 643e be35 dc3c e3c5 e0bd
000003a0: e649 77bc a07b fdbd f228 613d ed01 f0bc
000003b0: 9dff 00bd f152 9b3d 8b5c 29bd 52c3 e23d
000003c0: 32c9 a03d 79e5 c03d c86a 273d 16e2 ca3d
000003d0: 6bea b3bc c74d 3fbd 1379 a63d 8649 60be
000003e0: 6057 b7bc a295 463e 3deb a6bd 9678 64be
000003f0: cde7 32bd 3256 613f 4636 d73e fc8e 6ebd
0.035915077 -0.1472737 0.10208105 0.00092209753 -0.09489397 0.18524049 0.13266386 0.101596475
-0.027888745 -0.03633848 -0.021682872 -0.118307255 -0.16436279 0.03835281 0.09892251 -0.11107921
-0.041218247 0.0047559068 0.1722101 -0.5824105 -0.22243886 -0.025161 -0.33409116 -0.027932985
-0.03438185 0.10324628 -0.05212054 -0.022702258 -0.067687295 0.0101964045 -0.039996337 0.031113947
0.29755485 -0.07790052 0.106089644 0.44865936 -0.034406036 0.08042428 0.0776394 -0.0024396644
-0.18158676 -0.028559811 0.023246927 -0.13488486 -0.04206074 0.17279659 0.34805223 0.06014868
0.097913206 0.11045539 -0.06984853 0.0046371617 -0.17364885 -0.15281911 -0.18273984 0.12884903
-0.13699093 0.038647894 0.062703215 0.019986114 0.116520636 -0.09614565 -0.17733918 -0.05399116
-0.069023 -0.05539608 -0.059559833 -0.009475458 0.07015519 -0.08740622 0.4511028 0.16915752
0.08502634 0.6115827 0.3000377 0.027418137 -0.26977625 -0.06368163 -0.0027264259 0.031109894
-0.18376206 0.13620263 -0.0065932507 -0.20861463 -0.18425757 0.22504966 0.27308446 0.07486615
0.08769642 -0.010483329 -0.062583394 -0.03237497 -0.0089283725 0.024410715 -0.08419192 0.015814569
0.007527127 0.088332295 0.077116884 -0.13565965 0.21821785 -0.12870526 0.102329776 -0.08499011
-0.01631387 0.0011321085 0.29925048 0.03461123 0.0012873797 -0.3347193 -0.24576694 0.15667596
-0.1539695 0.12880364 0.05490683 0.7575521 0.054202065 0.080133766 0.06945995 -0.085901834
0.06083924 -0.1517774 -0.054406285 -0.06770933 -0.2056833 -0.04711838 -0.08775215 0.027093628
-0.057315733 0.028062066 0.12373648 0.12557295 0.0169877 0.0030244708 -0.19444726 0.08415902
-0.38513854 -0.029838698 0.07813444 0.14935866 -0.0007333293 -0.007413763 0.48119953 -0.048920307
-0.13152379 0.92298675 0.07243391 -0.0031936972 -0.2319209 -0.12659338 0.010608347 0.23648165
0.06569831 0.055915676 0.07330454 -0.17697483 -0.08579484 -0.14984849 -0.107581526 0.061969627
-0.23756005 -0.3280564 -0.05214465 0.1072041 0.14207783 -0.117681466 0.08525025 -0.11402481
0.0010184943 -0.03249153 -0.28680673 -0.086911514 1.0483991 0.07591464 0.08660607 -0.11400687
-0.05031608 -0.089591384 0.14259484 -0.025079463 0.0008332782 -0.14721943 -0.1227905 0.041326925
-0.037829563 0.108930685 -0.017537301 0.32566842 0.04863749 -0.09103144 0.17412928 0.10250831
0.0626506 0.030713059 -0.14842902 0.06586252 -0.19629951 -0.15658285 -0.07093219 0.24663016
0.10789412 0.06829108 0.1844249 -0.11371719 0.08576373 -0.2759287 -0.21945295 0.120494485
-0.14709496 -0.052747317 0.076227866 -0.10425791 0.19304511 -0.03589953 1.3954617 0.2867375
0.010752935 0.088612765 -0.12304031 -0.061901536 0.4155949 0.2857388 -0.14613219 -0.0033278177
-0.054885305 -0.031805348 -0.07142315 0.029023213 -0.019015351 0.22307299 0.026881095 -0.10975244
-0.015093302 -0.12377095 0.05497069 -0.029297793 -0.03149377 0.07584179 -0.04134802 0.11072411
0.07850875 0.094187684 0.04087332 0.09906404 -0.021962365 -0.046705034 0.08128562 -0.21903047
-0.02238053 0.19393018 -0.08150337 -0.22311625 -0.043678094 0.8802215 0.42033595 -0.05824183

base.cnn.cnn.0.bias f4 [32]
00000000: 491a a6bb 5a1e 3dbd ea2f 5dbd 857c 82bd
00000010: 158b 02bd 5a9d 4bbd 84aa 98bc fd94 14bd
00000020: 2831 48bd 4d79 02bd bc12 c3bd 8e54 89bd
00000030: 37bd 08bd 4bbd dcbc 7341 aabc 0bd6 f1bd
00000040: 2a72 00be 0b3d d6bc 8d6a 82bd e692 11bb
00000050: 7fdc 96bd f145 f8bb 56d9 05bd 5925 03bd
00000060: 5d18 713c f1d0 66bd 70d6 c9bd c86e babc
00000070: d779 dabd f586 51bc 6338 fbba 6adb 0fbe
-0.0050690514 -0.046171524 -0.054000773 -0.063714065 -0.03187092 -0.04971061 -0.018635996 -0.0362749
-0.048875004 -0.031853963 -0.09525058 -0.06705581 -0.033383574 -0.02694573 -0.020783162 -0.118084036
-0.1254355 -0.026152154 -0.06367979 -0.0022212802 -0.07366275 -0.007576697 -0.03267797 -0.03201804
0.014715281 -0.056351606 -0.09855354 -0.022757903 -0.1066777 -0.012788524 -0.0019166585 -0.14048544

base.cnn.cnn.3.weight f4 [64, 1216]
00000000: c144 833d e9da af3b 8193 1e3d eb6c 9f3d
00000010: 548d 73be ff28 4d3e 8600 bbbb 474e 013e
00000020: 8262 a93d cda9 0f3f a86a f03b 18ef 1f3e
00000030: 2f4a ab3d 4abf 4a3e be14 ebbd e30f db3d
00000040: 6554 49bc 98b9 a3be e7df 9bbe e2be 51bd
00000050: 05b3 92bc 08e8 1cbd d370 be3d 4a60 a4bd
00000060: 4062 f6bd 37cc febd df39 a43d d8ff 2abe
00000070: 8526 bb3d 1e47 0cbe 4bfe 2abe 9c60 a9bd
00000080: 280b 2f3d 78b1 c7be 8e75 35bf ed7a 6ebd
00000090: 77f1 cc3c f692 2b3d 2c94 d2bc 90d0 c83c
000000a0: 2044 003e 04dc 8a3e 7c1a d73d 47a9 433d
000000b0: 187a 083e c60b c3bc 4ebe e43c d9f2 653e
000000c0: 9e7f a83e ccac f43e a00f c93c 4fe1 d43e
000000d0: bac7 d73c a14a 0b3e 9035 893d 9adf 063e
000000e0: d35c 65be 332c 77bd 8939 b3be d247 073e
000000f0: 8e58 883b e569 adbd 2a61 b5be 9d69 113e
00000100: 0a48 71bd 0655 7a3c 2958 813e 4772 073d
00000110: 88cc 053d 5be4 ad3d b38f 33be a780 58bb
00000120: f3ef 0dbe e3df 2c3d f9d9 08be 465b 0ebb
00000130: 38af 903d 3772 adbc cc08 90bc dda4 c5bd
00000140: b556 3cbd cc2a a3bd 1216 d8be a99d c43e
00000150: 5351 ad3d 97fc 7d3e 3115 a1bc 9ee3 243d
00000160: a832 0fbe 8d24 a0be c97c 483d 2983 10be
00000170: 437a 1bbd befa 56bd 83d1 dabb ab8a 5fbc
00000180: b302 683d d6a9 db3c b3f3 133e abcf 38be
00000190: 7ac1 653e ebc8 78bc cbc2 e1bd 7cba 923d
000001a0: ddf1 86bc 3e14 523a 537a d5bd 7897 afbc
000001b0: 4a66 9cbe 9642 88be 69e5 89be e361 18be
000001c0: 9a2d cabd 476a aebd 3fe2 8cbc 792a 453d
000001d0: 606b 9bbc 2fe8 a0bd 8c12 353d b628 8f3c
000001e0: 22eb b53e b739 7c3c aa17 233d 59ed f4bd
000001f0: 3ac4 c3bd 3b65 d53d 087a c73c 3e92 37be
00000200: 818b 6f3c 3b46 d4bc 392e ffbc ad1a 593c
00000210: 4a4b 543e ed9b b6bd 4eed 7abe c9cb fb3c
00000220: f123 55bd 16f1 373c 8693 5b3d 9d36 37be
00000230: c4cd e03d 9b1b 4d3c e5f8 1ebd 4324 02bd
00000240: 1460 523e f887 37bd 52c5 febd 1cea 6e3d
00000250: 0d65 e03c 11b0 78bd 0c53 8e3d 9a01 d4bd
00000260: 65ea 273e b127 4f3c 2541 95bd a422 513d
00000270: 94ac d7bd 9f32 3a3d f129 f33c fff6 e73d
00000280: 443b fd3d c406 88bd 22a4 52bd a764 733e
00000290: 487a 0e3d 0b5e 9bbd 9592 f53c 7080 01bd
000002a0: fc55 293d 9291 e6be a32c 5abe fa9e c1bc
000002b0: 92ef 1bbc 931c 893d 2f86 d53d d60b 03bf
000002c0: 1bd2 833e fd82 55bd 2320 03be 0df4 fdbc
000002d0: 42fb 6cbd e057 5abe f15a fc3d d8df 7fbe
000002e0: 0dd5 59be 8d3b 2bbe 961d 0f3d 6eb5 0e3e
000002f0: 4503 edbc 4ed4 2dbd 8c16 1a3e c136 f1bd
00000300: 856c a73d 6976 a03e 3ca6 963d 45f5 1f3e
00000310: 80e6 583e bb03 0e3d c2ee bebc 0434 473d
00000320: 9cf4 a33d 6f28 023f a1ce 623d 1fb8 a33d
00000330: 7bf9 9a3d 1785 9ebd 20f3 f9bc 8f2c bc3d
00000340: 72ec dbbe 86b0 9bbe f00d 88be 55da 1b3e
00000350: 8bfc 943c b8cb 9e3d d425 abbc 0e40 883e
00000360: f7bb 793e f04c eebd 942a 31bd e0e9 a03d
00000370: 9c08 e43d e583 a2bd bae4 28bd b1e3 bb3c
00000380: d699 84bc 16a9 a0ba 3110 af3c 02d9 33be
00000390: 5388 3e3e bc1e 6dbd 805d 833c e952 0c3e
000003a0: d83f 083d 6104 ac3d ab5f e43d 9b55 f63d
000003b0: 3886 823b 59b0 b7bc 530a 96bc fde3 8b3e
000003c0: 57f8 f1bd a620 3c3e c851 bbbd 8edd 32bd
000003d0: 1bd2 61bd d623 64be 9eb9 033d 0785 a5be
000003e0: cc43 823d 89de 013d aa4e 95bd 0289 2b3e
000003f0: 8503 b53d 1a9e 99bd 9ea3 7bbd 3d3c 1fbe
0.06409598 0.0053666723 0.03871489 0.07784446 -0.23784381 0.2003517 -0.0057068495 0.12627517
0.08270742 0.5611847 0.007336933 0.15618551 0.08363759 0.19799533 -0.11478566 0.106963895
-0.012288188 -0.31977534 -0.3044426 -0.05120743 -0.017907629 -0.03830722 0.09298863 -0.08026178
-0.120304585 -0.12441295 0.080188505 -0.16699159 0.091382064 -0.13699004 -0.16698568 -0.0827038
0.04273525 -0.39002585 -0.708825 -0.0582227 0.025017483 0.0418882 -0.02570542 0.024513513
0.12525988 0.27120984 0.10503098 0.047768857 0.13327825 -0.023809325 0.027922776 0.2245592
0.32909864 0.47788084 0.024543583 0.41578147 0.026340354 0.13602687 0.06699669 0.13171235
-0.22398691 -0.060344886 -0.35004833 0.13210991 0.004160947 -0.084674634 -0.35425693 0.14200445
-0.058906592 0.01527906 0.25262573 0.033067968 0.03266576 0.08490821 -0.17535286 -0.0033035667
-0.13861065 0.042205703 -0.133644 -0.0021721884 0.0706467 -0.021172626 -0.01758232 -0.09650586
-0.045981128 -0.07967147 -0.42204338 0.38401535 0.08462777 0.24803387 -0.019663425 0.040256135
-0.13984168 -0.31277886 0.04894713 -0.14112534 -0.037958395 -0.05248522 -0.006677808 -0.013643901
0.0566432 0.026814383 0.14448433 -0.18047969 0.22437087 -0.015184621 -0.11023482 0.07164475
-0.016472751 0.00080138806 -0.10423722 -0.02143453 -0.3054679 -0.266133 -0.2693284 -0.14881091
-0.09871979 -0.085163645 -0.017197726 0.04813621 -0.018972099 -0.078567855 0.04420714 0.017475467
0.35530955 0.01539462 0.03981749 -0.11959333 -0.095589116 0.10419699 0.024350181 -0.1792688
0.014620663 -0.025912395 -0.03114997 0.013250989 0.20731845 -0.08916459 -0.24504587 0.03073682
-0.05203623 0.011226913 0.053607486 -0.17891927 0.10976747 0.012518789 -0.038811583 -0.031772863
0.20544463 -0.044807404 -0.124399796 0.058328733 0.027391935 -0.060714785 0.06949434 -0.10351868
0.16398008 0.0126437405 -0.07287816 0.051058426 -0.105309635 0.045458432 0.029683085 0.11326408
0.1236482 -0.066419154 -0.05142606 0.23768865 0.034784585 -0.07586297 0.029977122 -0.03161663
0.041341767 -0.45032936 -0.2130609 -0.023635376 -0.009517567 0.06694903 0.10425984 -0.51189935
0.25746235 -0.052126873 -0.12805228 -0.031000162 -0.057856806 -0.21322584 0.12322033 -0.24987733
-0.21272679 -0.16721936 0.034940325 0.13936397 -0.028932223 -0.042438798 0.15047663 -0.117780216
0.08174995 0.3134034 0.073559254 0.15620907 0.21181679 0.034671526 -0.023307208 0.04863359
0.0800564 0.50842947 0.055372838 0.07994103 0.07567116 -0.077402286 -0.030511439 0.091881864
-0.4295383 -0.30408114 -0.26573133 0.15220006 0.018186828 0.077537 -0.020892061 0.2661137
0.24388109 -0.116357684 -0.043253496 0.07857108 0.111344546 -0.07935313 -0.041233756 0.02293572
-0.016186636 -0.0012257423 0.021370025 -0.1756325 0.18606691 -0.05789064 0.016035795 0.13703503
0.03326401 0.08399273 0.1115106 0.12028047 0.0039832853 -0.022422956 -0.01831547 0.2732238
-0.11814945 0.1837183 -0.09146458 -0.043668322 -0.055132013 -0.22279295 0.03215944 -0.32328054
0.063605875 0.031706367 -0.072903946 0.16751483 0.08838562 -0.075008586 -0.061435334 -0.15550323

base.cnn.cnn.3.bias f4 [64]
00000000: 02a4 1f3e 66cd 253d fbde 1ebd 250c f53c
00000010: dc18 5c3c d13c 003d e0f0 69bd 2397 30bd
00000020: 6979 233d 02d3 4fbd ab61 06be 4ee0 7ebd
00000030: 0a54 27bd aa1e 23bd 638a 54bd 529d ecbd
00000040: 3178 823d 1fc5 a5bd 45ed 75ba 9124 a63c
00000050: 8f53 0b3d c500 413d dfe0 43be ad69 883d
00000060: 9f8f 963b ec66 eabd 54e9 323e 5803 8c3d
00000070: 2946 3a3d 5e20 40bd 57f4 ec3c 5925 07be
00000080: 590b 2f3c 9963 2c3e cf22 06bd cc46 1cbe
00000090: 75ef 2abd fe09 31be 63d6 0f3d 3cdb 03bc
000000a0: 8406 b03d 6336 bfbc 4656 9dbd feda 303d
000000b0: e32e c5bd 5dd2 4abc 627c 7bbc 71c3 aa3d
000000c0: 3a20 5ebe 34fd 233d f51d 0e3d fd3f 8fbc
000000d0: 2d78 7d3d 19be d53d 70c4 a4bd dc55 8e3d
000000e0: dfb4 87bd deb6 72bd 2113 fdbd d0c0 e63c
000000f0: 7bbf 45bd bf00 c03c c016 0c3c 706a acbd
0.15589908 0.040479086 -0.03878687 0.029913018 0.013433661 0.031308 -0.057114482 -0.043112885
0.039910708 -0.050738342 -0.13123195 -0.062225632 -0.04085163 -0.039824165 -0.05188979 -0.11553444
0.06370581 -0.080942385 -0.0009381364 0.020281108 0.034015235 0.047119875 -0.1912875 0.06660781
0.0045947577 -0.11445412 0.1747182 0.06836575 0.045477066 -0.046905868 0.028925104 -0.13197841
0.010683858 0.16834868 -0.03274804 -0.15261382 -0.04173227 -0.17288968 0.035116564 -0.008047875
0.08594993 -0.023341363 -0.07682471 0.043177597 -0.096280836 -0.012379256 -0.015349479 0.08338059
-0.21691981 0.040036395 0.034696538 -0.017486567 0.061882187 0.10436649 -0.0804528 0.0694997
-0.06626295 -0.059256427 -0.12357164 0.028168112 -0.048278313 0.023437856 0.008550346 -0.08418739

base.cnn.cnn.5.weight f4 [64, 64]
00000000: ac28 5fbe 13e8 903d 07a6 21bd 52a2 c7bd
00000010: fe3a 91be 6b5c 963c 0f2a f63d 9d1e 5ebd
00000020: 62c5 d1be 927b 173e ade5 6c3d 5339 13be
00000030: 8a18 223f 9328 a5be 62e5 1abd e40b f9bd
00000040: d0e9 13bf 9e90 263e af4a 99be 7493 96bd
00000050: 3a9a f53e 3559 643e 43ad a33e 0170 693e
00000060: 10d7 29be 99c2 643e 16b8 f03e 324f 4cbc
00000070: 70a9 ad3d 8e6a d73e 6dd3 8cbe b5d3 4fbd
00000080: 4987 293e b872 8fbd 9d12 c93e 3a31 4ebd
00000090: 5804 c8be ea38 133e eaed 02bf 9126 893b
000000a0: 5253 be3d 3e4b cebe 300b 8bbe e616 a13d
000000b0: 1510 89be a533 42be d397 c6bd ee7c c0bd
000000c0: 1bc2 dfbd 04b9 93be c491 d53d 83cc b9bc
000000d0: 3734 08bf 3a29 813c b6fb 9f3e a8cd 363e
000000e0: db02 eb3e 6da6 97bd 6849 08bf fe53 cbbd
000000f0: 64a1 9cbe 33f1 dcbc c801 813e 71ba 40be
00000100: 79a7 ee3e dcbc a73e 79f4 a73e 0607 513e
00000110: dfc7 debe ca2a fc3d ebc2 9f3e 33a3 c6bd
00000120: c095 ab3d ae41 95be 9400 28be 4968 5a3d
00000130: 22f5 debe e39f 813e 3621 06be f284 d9be
00000140: 792c 9fbd 6760 28bf d07f 403d d945 5abf
00000150: 7df6 d13d a91b fe3e 8996 4b3e 2e0a e4bc
00000160: bfd3 403e 434b 123e add5 9bbe c11d 46be
00000170: d3aa bfbd 1717 d5bd 3d59 083e b654 183f
00000180: f405 5fbe 1f47 04bf 3563 263d 42ac 293f
00000190: 5010 833c 370f 07be 248a e6be 9cc1 753d
000001a0: 2988 0c3e c709 be3b 1f15 05bf 3a51 303e
000001b0: b5c1 193f bf45 c83e 0033 9d3e 092d 76bd
000001c0: 4179 d0be c979 6a3e 53f4 10bd 61d6 dabd
000001d0: a331 f43d 4f29 983d c3e9 043f 1002 693e
000001e0: 3030 f03e cb07 e1bd e817 80bc 459d 303d
000001f0: eb02 d23d adc3 d33d 790d 7ebe fa77 9f3e
00000200: 33c4 febd 4a59 883e ac36 723e 67f2 8fbc
00000210: 8ac5 213e be94 d13e c99f 19be 0efc b8be
00000220: b114 27be e5c9 56bf f76a b4be a10c 20be
00000230: ecc4 8b3d 5f68 273d 9134 573e 7bfa d13e
00000240: b7cf 9ebd 4ea5 91be 4879 00bf eb75 413f
00000250: 9173 d43e 8fee 46bd 9bcf 893d b785 f8be
00000260: a2ef d5bd 0431 d4be 9917 47bf 5198 89be
00000270: 8340 a13e ecf4 bd3e ebba e93e 131b 96be
00000280: e52b 9ebe 954c 1cbd 79aa 24be ea15 17bc
00000290: 14ae 22bf 14af 84be f0d5 8e3e 5ce8 de3e
000002a0: e82f c53e a817 633e 1411 04bf 13c1 73bd
000002b0: 39dd 86be 19fd a83d 0ddb 863d 73ce d5be
000002c0: cf81 283e d0d0 25bc 5d8f 173e 353c 243b
000002d0: 2b72 d1ba f32d 3e3e 224c 05bf 5f68 db3e
000002e0: 8edd 1abe c963 f7bd f3f5 4fbe b1a7 873e
000002f0: c181 2ebe 5585 82bc 8133 af3e 222b 943e
00000300: 7911 e4bd d57f a8be 0ba6 983d b539 b9bd
00000310: b1ae d3bd db5a 173f 399e 8e3e 0ab1 3c3d
00000320: 8df2 2fbd 09e5 963c 9ea8 babd 5dee cdbe
00000330: 666e 1d3f 1c95 723d c98e ea3d 4e7f 42be
00000340: 5d31 2dbe fef8 053e 41a9 b03d 16f3 d33e
00000350: 6f0b e43d d1ae 4cbf 07d7 253e 4351 4fbc
00000360: 94b0 1d3e 65f7 863d 76f9 aebd 03e2 853f
00000370: b5e1 be3e cda1 363f 0a21 1f3e a61b afbe
00000380: 3f1d d4be 2bef 33bb 9f7e 3a3f e83f 1fbc
00000390: 0b8b fe3d 6f21 013f 4cb6 993e 9edb c8bd
000003a0: 2647 7fbd 1687 1e3d 88d9 963d eef2 b73e
000003b0: ac23 5dbe 5a09 e8be 02a2 913d 1bcf a6be
000003c0: 4289 343d 92ab 2d3e d07a 70bd 41cb 72be
000003d0: 9860 ddbe 5937 24bd f62f 83be 0ddd 1e3f
000003e0: 1695 303d 98ed 873d 4921 a43d 92e4 48be
000003f0: 117c 5e3d 8aba 463e e2b5 d2bd 778a 58be
-0.21792859 0.07075515 -0.039464977 -0.09747757 -0.2836532 0.018354615 0.12019741 -0.054228414
-0.40970904 0.14793232 0.057836223 -0.14377336 0.63318694 -0.32257518 -0.037816413 -0.12160471
-0.57778645 0.16266105 -0.29939792 -0.07352343 0.47969228 0.22299655 0.31968126 0.22796632
-0.16585946 0.22339858 0.47015446 -0.0124700535 0.08479583 0.42073482 -0.27505055 -0.05073901
0.16555513 -0.07004303 0.39272013 -0.050339915 -0.39065814 0.1437718 -0.5114428 0.0041855057
0.09293236 -0.4029178 -0.27156973 0.07865696 -0.26770082 -0.18965013 -0.09696927 -0.093988284
-0.109256946 -0.28852093 0.10428193 -0.022680527 -0.53204674 0.015766729 0.31246728 0.17851889
0.45900616 -0.0740479 -0.5323701 -0.099281296 -0.3059188 -0.026970482 0.2519667 -0.18821122
0.46612146 0.32761276 0.32803705 0.20412835 -0.43511865 0.12312849 0.31203398 -0.096990965
0.08378172 -0.29151672 -0.1640647 0.05332211 -0.43546396 0.25317296 -0.13098606 -0.42484242
-0.07772154 -0.657721 0.04699689 -0.8526283 0.10252092 0.49630478 0.19881643 -0.027836885
0.18830775 0.14286523 -0.3043646 -0.19347288 -0.09358754 -0.10404795 0.13315292 0.5950426
-0.21779615 -0.5167102 0.040621955 0.6627847 0.01599899 -0.13189398 -0.45027268 0.059999093
0.13723816 0.0057995054 -0.51985353 0.17218485 0.600612 0.39115712 0.30702972 -0.060101543
-0.4071751 0.2289802 -0.035389256 -0.10685421 0.1192353 0.07429754 0.5191919 0.22754693
0.46911764 -0.109878145 -0.0156364 0.043118734 0.10254463 0.103400566 -0.24809827 0.31146222
-0.12439766 0.26630622 0.23653668 -0.017571641 0.15798011 0.40933794 -0.1500236 -0.36129802
-0.16316487 -0.83901817 -0.35237858 -0.15629818 0.06824669 0.04087102 0.21016146 0.41011414
-0.07754462 -0.2844643 -0.5018506 0.75570554 0.4149442 -0.04856735 0.06729051 -0.48539516
-0.10446097 -0.41443646 -0.7777038 -0.2687402 0.3149453 0.37100923 0.4565042 -0.2931753
-0.30892864 -0.03815897 -0.16080655 -0.009221533 -0.6354687 -0.25914824 0.27897596 0.4353665
0.38513112 0.22176993 -0.5158856 -0.0595103 -0.26340654 0.082513995 0.06584749 -0.4175907
0.16455768 -0.010120586 0.14800783 0.00250603 -0.0015979459 0.18572216 -0.52069294 0.42853066
-0.15123579 -0.120795794 -0.20308666 0.26495126 -0.17041685 -0.015932718 0.34218982 0.28939158
-0.11136145 -0.32910028 0.07453545 -0.0904421 -0.10336054 0.5912301 0.2785509 0.046067275
-0.042955924 0.01841976 -0.091141924 -0.4022092 0.6149658 0.059224233 0.11453015 -0.18993875
-0.16913362 0.13083264 0.086260326 0.41396397 0.11134993 -0.7995425 0.16195308 -0.012653652
0.1539939 0.065901555 -0.08543675 1.0459598 0.37281576 0.7134064 0.15539947 -0.34200782
-0.41428563 -0.0027455788 0.7284946 -0.009719826 0.12428864 0.5044164 0.30021894 -0.09807514
-0.06232371 0.038703047 0.073657095 0.35927528 -0.21595639 -0.45319635 0.07110979 -0.32579884
0.04407621 0.1695998 -0.058710873 -0.23710348 -0.43237758 -0.040091846 -0.2562253 0.62056047
0.04311093 0.06637114 0.08014161 -0.19618443 0.054317538 0.19407097 -0.10288598 -0.2114657

base.cnn.cnn.5.bias f4 [64]
00000000: 3c05 d4bc 51ef a13d b29b d6bd 2e62 cabd
00000010: 0716 8abd 4358 e0bd afae 74be 4e61 853d
00000020: ddcc 41be 76e6 33bd 67d2 53bc c864 45bd
00000030: 8bed 973c 3f70 debd c559 1ebc d5f6 95bd
00000040: 3646 4bbe da1e f9bd 51fd 0abe d036 c9bd
00000050: 4211 a93b a6a2 bb3c 8c82 5fbe 9031 bd3c
00000060: fd3c c8bd b41e 2abe f789 cdbb d51f cabd
00000070: 1085 97be 1d50 393e 8485 aebc 0a71 c7bc
00000080: 18a4 74be b6f0 8dbd 8d32 aabd 7bbf 363d
00000090: b152 0abd b9f6 d9bc da0d b83d 30ca 963c
000000a0: 7993 a8bd e02d f8bc cae2 bfbd b2de bdbd
000000b0: 918e cc3b 0e62 91bc 0d62 3dbd 8901 373b
000000c0: 7204 01bd 4b4f 07be e3d5 9aba 549e 733d
000000d0: 972b f3bd f0c9 a8bd 5ac4 98bd 7937 e9bd
000000e0: ab84 51bd ec87 f2bc b702 96bd 33f7 b7bd
000000f0: dc06 09be 909d c23d 6e53 50bd d466 713d
-0.025881402 0.07906974 -0.10478915 -0.098820075 -0.06742483 -0.109543346 -0.23894762 0.065127
-0.18925805 -0.043920957 -0.012928582 -0.048191816 0.018545887 -0.10861253 -0.009664957 -0.0732247
-0.19851002 -0.121640876 -0.13573195 -0.09824908 0.005159528 0.022904705 -0.21827143 0.023094922
-0.097772576 -0.16613275 -0.00627255 -0.09869353 -0.29593706 0.18096967 -0.0213039 -0.024345893
-0.23890722 -0.069306776 -0.08310423 0.044616204 -0.033770267 -0.026606904 0.08987017 0.018406957
-0.08231253 -0.030295312 -0.093694285 -0.092709914 0.006242581 -0.017746951 -0.046236087 0.00279245
-0.03149838 -0.13213842 -0.0011813011 0.059477165 -0.118735485 -0.082416415 -0.07459326 -0.11387534
-0.051151913 -0.029605828 -0.073247366 -0.089826964 -0.13381523 0.09502709 -0.050860815 0.058935955

rnn.rnn.weight_ih_l0 f4 [192, 64]
00000000: 88d7 2e3e 5e4b 8a3d 77ac 0bbe 185b 84bb
00000010: 6064 9dbd 902f 3ebe 086c 07be 0000 11be
00000020: 4db2 c33d 3b5b 04be 77c1 c5be b0e7 2ebe
00000030: 9c91 1a3c 7b72 cabd 9d19 45be 85f8 10be
00000040: 8b12 c3bd 7394 9ebe 9e00 953d 5e3d 15be
00000050: 03df 30bc 0209 27bd de80 08be ea7b ec3c
00000060: 0de0 333e 9ba5 70bc 97c9 d8bd b0e4 e7bd
00000070: 2ff1 27be 517b 88be 3e2b 57be fea6 60be
00000080: 7179 4ebd 2f1d 4fbe 520e b43d 3c27 803d
00000090: 9622 7a3d bc9f c13d fd27 1e3d 5e9d efbd
000000a0: 3841 d1be 7fda 68be db9b 3a3d dc1a f73d
000000b0: 853c a33c 305a f3bd 2d2c d8bd e08e eebb
000000c0: fcef 3f3c f601 0bbe 490d a53d f967 04be
000000d0: e6c0 563d edd3 08be f086 a3bd 527c 31be
000000e0: 6fbc babd ba22 dbbd 69a7 bcbe 3a0d a3be
000000f0: 5d38 19bd f092 3cbe 0e96 b0bb 8867 073c
00000100: 70b0 2ebe 978d b23c 7486 0fbe 2532 dfbd
00000110: 8d73 9b3d 565f 76bd 9567 34bc 0fbe 193d
00000120: 81de a8bd cbd1 9bbe b7f7 e6be 8c5e bfbd
00000130: ebde 98bd f3fb bdbd 44d7 f2be 6ca5 8fbe
00000140: 20ea 45be 2fb6 71bd 06af a2bc 8773 813b
00000150: d175 a9bd 49dc 413d cc0b 7fbc 9bf2 60bd
00000160: 7f42 17be 67c0 4bbe 0ed9 c2bd f7ff 4bbd
00000170: 3e3a 53be 4fb8 93be d19b 3dbe 8dcd a3be
00000180: 2af8 89be 0af2 a93d 1cda b5bc 72dd e4bd
00000190: 846a 73be caeb 8bbc 37a5 4dbe f810 223d
000001a0: 97a2 88bd 4437 8fbe 74f4 dd3d 135d 8c3d
000001b0: 70d6 67bd 53c0 623d a692 72bd 14fa e3bd
000001c0: cbdc 31be 24b1 60bd ff0d 5c3d 7352 fdbc
000001d0: c27f 97bc b285 49be fc3a 36bd 8aa6 153e
000001e0: 9d15 6fbd f1ee dcbd 933b 1cbe a616 54be
000001f0: c8fd 3cbd 3d95 4c3d 2801 24bd 023e 57be
00000200: a8e6 f9bd bde6 62bd 042b 39be 3f6f b2bd
00000210: 393b e1bc 7cbe e0bd 4da7 6ebb 5e88 b3bd
00000220: 933e a4bc a858 6abc eeb8 2bbe bc34 0ebe
00000230: 6d23 c7bc 2c7e aabc 8a80 f3bd 48cf 853d
00000240: 3ed9 c3bd 21ca d3bc 90fd 4d3d d24f 423d
00000250: 3c01 c73c 1ff8 c6bc 4052 ffbd 16f8 0b3e
00000260: 8daf 9ebd a263 92bd 89aa 603d ed7c ac3b
00000270: 2c39 45bd f8ef dbbd b12a 7dbd 2f63 bbbe
00000280: fb86 69bd d73f babc 879c 39bd 7ec9 d8bd
00000290: 0a4b 82bc 917d 9d3d 3445 edbd 9b4e b43d
000002a0: 7b00 cfbd 6d96 57be ebae 1abe dba4 36be
000002b0: 585d 59bd 8fe2 86be 82c0 51be 8503 c5bd
000002c0: 3f69 8abd 2b23 edbd e4a9 00bd 0fb6 abbd
000002d0: 5d61 7dbd bed3 e1bd e057 573c 42cd 2f3d
000002e0: 7839 3e3e 0cb5 84be 1173 39be ca43 1cbe
000002f0: f009 07be e4b3 d33b 1ae2 ce3d e94c 28bd
00000300: 2956 26bd be64 31be f393 c1bc ac2d 13bd
00000310: 212a 843d 7497 e3bd 435f 443d 1cff 4bbd
00000320: cf51 7fbd 9526 47be 78b6 37be ea43 91bd
00000330: 300a 353d 3857 30be e030 5ebe 2b3c 41be
00000340: 07e7 2cbd e743 79bd e93a 1abe 3add 4bbc
00000350: 4fe7 38be 3abf 3bbd 02a9 97bc 5c1f 3dbc
00000360: 3436 7d3d d27e 5ebd 033f d23c 2df1 bf3b
00000370: d065 7ebe 64c2 c1be d9b4 14be 52bd 67be
00000380: 413f 51be ccd5 3bbe 57b4 143e 192b 8ebd
00000390: 1cd5 19be 4308 7b3d 9b51 763c a027 14bd
000003a0: 729b 83be b748 1fbe 50a9 323d 4b1a 5c3d
000003b0: c9c3 eb3c cd7f e8bd 3fa7 4bbe e9c9 aa3d
000003c0: 55f3 f0bd 3ec6 aa3c 039a 08be ead7 97bd
000003d0: c713 e8bd 0f1c aebd c9de fdbb 05ca babd
000003e0: cd80 8dbc 2bc8 27be e3da eabd d0e0 0dbe
000003f0: 9be4 ddbb 8322 aebd 96e3 143d f925 ba3b
0.17074406 0.067526564 -0.13640009 -0.0040391795 -0.07685161 -0.18572831 -0.13224804 -0.14160156
0.095554926 -0.12925427 -0.38624164 -0.1708057 0.00943413 -0.09885117 -0.19248052 -0.14157303
-0.09525021 -0.30972633 0.07275508 -0.14574191 -0.010795358 -0.040780075 -0.13330409 0.02886768
0.17565937 -0.014687921 -0.10585325 -0.113229156 -0.16400598 -0.26656583 -0.2101259 -0.21938702
-0.050408784 -0.20225976 0.08791794 0.06257483 0.06106814 0.09454295 0.038612355 -0.11699937
-0.4087007 -0.227396 0.04555879 0.1206567 0.019926319 -0.11882436 -0.10555301 -0.0072802156
0.011714932 -0.13574967 0.080591746 -0.12930287 0.052430056 -0.13362093 -0.07984722 -0.1733258
-0.09117972 -0.10699983 -0.36846474 -0.3184603 -0.037407268 -0.18415427 -0.0053889817 0.00826443
-0.17059493 0.02179603 -0.14016134 -0.10898236 0.07590399 -0.060149513 -0.011011024 0.03753477
-0.08245564 -0.30433497 -0.45110866 -0.09344205 -0.07464393 -0.09276571 -0.4742986 -0.28055894
-0.19327593 -0.059011634 -0.019858848 0.0039505395 -0.08274425 0.04732922 -0.015566777 -0.054918867
-0.1477146 -0.19897614 -0.09514056 -0.049804654 -0.20627686 -0.28851554 -0.1851647 -0.3199276
-0.26947147 0.082981184 -0.02219873 -0.1117505 -0.23771101 -0.017080206 -0.20082556 0.039566964
-0.066716366 -0.27971852 0.10837641 0.0685369 -0.056600988 0.055359196 -0.059221886 -0.11131683
-0.17369382 -0.054856434 0.053724285 -0.030923104 -0.018493537 -0.19679907 -0.044489846 0.14614311
-0.05837022 -0.10787762 -0.15257101 -0.20711765 -0.046140462 0.049947012 -0.040040165 -0.21019748
-0.12202197 -0.05539583 -0.18082815 -0.08712625 -0.02749406 -0.10973832 -0.0036415637 -0.08766244
-0.020049369 -0.014303364 -0.16769764 -0.13887304 -0.024308885 -0.020812117 -0.11889751 0.065336764
-0.0956292 -0.025853219 0.050290644 0.047439404 0.02429258 -0.024288235 -0.1246686 0.13668856
-0.077483274 -0.0714791 0.054850135 0.0052639158 -0.048150226 -0.1073913 -0.06180829 -0.3659911
-0.057013493 -0.02273552 -0.04531529 -0.105853066 -0.015904922 0.076899655 -0.11585465 0.08804055
-0.101075135 -0.21053477 -0.15105788 -0.17836325 -0.053067535 -0.26344725 -0.20483592 -0.09619812
-0.06758355 -0.115789734 -0.03141202 -0.08384334 -0.06186043 -0.11026715 0.01314351 0.04292036
0.1857661 -0.25919378 -0.181103 -0.15260234 -0.13187385 0.0064606536 0.10101719 -0.041088972
-0.040609512 -0.17323586 -0.023630118 -0.035932228 0.06453348 -0.11112872 0.04794241 -0.049803838
-0.062333878 -0.19448312 -0.179407 -0.07093032 0.04419917 -0.17220771 -0.21698332 -0.18870609
-0.042212512 -0.060855772 -0.15061535 -0.012442881 -0.18056987 -0.045836665 -0.018513206 -0.011543121
0.06181927 -0.054320164 0.025664812 0.005857608 -0.24843526 -0.3784362 -0.14522113 -0.22630814
-0.20434286 -0.18343276 0.14521919 -0.06941814 -0.15022701 0.061287176 0.015034105 -0.0361706
-0.25704533 -0.15555082 0.0436185 0.053736012 0.028779881 -0.11352501 -0.19888018 0.083392926
-0.11765162 0.020846482 -0.13340001 -0.07414229 -0.11331897 -0.085014455 -0.0077475053 -0.091205634
-0.017273331 -0.16384952 -0.114675306 -0.1385529 -0.0067716367 -0.08502676 0.036349855 0.005680796

rnn.rnn.weight_hh_l0 f4 [192, 64]
00000000: 99fc 84bd 11bc 88bd 7a6f 8cbe dbe7 18bd
00000010: 65cf a73e 2890 a33b 8ed1 c0be 15aa 33be
00000020: fec9 c6bc 528d 95be 7f0a 6bbe 6ef2 043e
00000030: 4822 043e 7e9a 0c3f 67e1 943c 33b5 9d3e
00000040: a270 ee3d 172c d6be 3615 6e3e 1c96 813e
00000050: fea9 37bd 0103 7cbd 6e2c 11be 40a8 f4bd
00000060: 7720 6c3c 3eaf 3d3e 8d6d 5ebe 308f a4bd
00000070: 8268 4abe 8464 cd3c 3c31 d33c eeda 623d
00000080: 8e1c f2be eb07 473c 1c33 013d 7eed 37be
00000090: ac4b 073e fdc4 433d 262d b63e c553 4d3d
000000a0: 2682 c0bd fa0f fcbd c596 57be 4767 913d
000000b0: 70ef 503e 8b7f ce3c a3e4 8bbe a7c5 d0bd
000000c0: b31d 2e3c 894b 213d 224a f13d ee0a 0dbe
000000d0: 29f3 4f3d 5ff3 893e df1f a9be 7d6f b63e
000000e0: 171c 43be 4b91 84be 03b6 cfbe 6ebe e33d
000000f0: 8a43 5c3d 170e d1bd f748 aebe f8ac 7d3e
00000100: 501b adbd 3756 dbbd 872c b6be d2bd c0bc
00000110: 7479 033e b08c e43b 5047 8cbe 9492 93bd
00000120: 1781 d63c 230f 2cbe 85a5 663d 88f7 0cbb
00000130: afe9 083e 24bd 953e d64e 00be 663d 423e
00000140: 1baf 0c3d 04ee 4bbe a31b b43e 3d64 163e
00000150: c631 3ebe 6eea 13bd a039 3abe 5037 253c
00000160: 613e 5cbe f230 893e d19a d4bd 473d 6abe
00000170: a4a7 7dbc 1978 e53c c4fa 3ebc 6ea6 f43d
00000180: 3f7d 04be 6212 8cbd afe0 533d 2952 87bd
00000190: c55b bb3c 8766 1cbe 7516 683e d82f c03d
000001a0: d898 ffbb 2ffe 08be b1f2 9cbe 03c6 4b3d
000001b0: 8efc 4f3e 99a3 6abe 00c1 84be f022 3cbd
000001c0: a5c0 13bc 5ee7 f03d dfd9 dbbc d6c1 52be
000001d0: d060 173e 258e 913e 02d4 8bbe 78b3 543e
000001e0: fe0c 51bd dbfe 4fbe 9d77 b4be 4952 ee3d
000001f0: c01b e4bd 64ef b7bc f88a b3be 5396 093e
00000200: 3d21 c3bb d4b3 243d c8dc 743e 779b 9f3b
00000210: 718b ee3c a659 9b3d 9a6f b93d 184a dcbd
00000220: 6d09 373e a621 6b3d 23cb a23d fd65 e2bb
00000230: c49a 1ebb 5a46 703e fe75 38be 4280 2b3e
00000240: 5466 b33d 8075 6c3e 30a7 31bd 9ff6 3ebd
00000250: d500 5b3d 046a c1bd 3c52 2d3c a199 a73d
00000260: 8efa 25be 683b 303e 0537 97bd f33c 1e3e
00000270: 269e 2e3e 4b28 f53d ac67 2fbd 9611 26bd
00000280: de2a a63d 1b0e 1a3c 1006 a6bc e3c9 2cbd
00000290: 42d5 133e 484a ddbb 5d0b 6abd c636 65bd
000002a0: 619a 193e ad7a 24bd c074 573e 2d6b 1d3e
000002b0: e2fa a1bd bd9c e63d 7dd8 1f3e 1a68 dfbd
000002c0: 7226 853d baac 37be 817f aabd 00b2 1abe
000002d0: 9102 63bc 40bc 313d 0ebf 02be 8eb3 813d
000002e0: b2e8 923c 7435 4cbe bc10 a5bd 1da4 6fbd
000002f0: 1084 41bc 791f 223e 673e 343d 1678 60bc
00000300: 08c2 543d a107 b73b a2ce 09be d734 66bd
00000310: 0d4c 8f3e eb6d 1f3c f677 8abe 1bc3 c3bd
00000320: cde3 42be 58dc 22be 9d0e 9ebd 5134 893b
00000330: 11e9 bf3d 2903 bd3e 526c 6f3d 8491 c13e
00000340: fee2 beba 6c39 9abe e7d0 903e 7c75 6e3b
00000350: bc82 263d 069b 77bd 249c 09bd 6d6b ad3c
00000360: 16bc a03d de35 773d f2d4 d7bd 6620 ac3d
00000370: fcf9 8bbd 6b56 b03d ab84 b43d 5b56 4abc
00000380: e02b ffbd 1c97 dd3d 4913 65bc c43e 86bc
00000390: 93dc 58ba 16a4 96bc 4ef5 8c3e 235f 573e
000003a0: ec34 a9bd 2767 dcbd 2ee7 35bd 2b01 8b3d
000003b0: b461 353e 402e c1bd 2987 80be 53af 0f3e
000003c0: 1e5b 653d 10c4 b13d 40d7 a7bb 1c86 7bbe
000003d0: b8ca 8b3c 3d6b 503e b293 82be bd9f a03e
000003e0: 1185 97bd 053b 83bd 5253 c3be bc26 363e
000003f0: b1e3 073c 6d6b 8d3d 3e17 86be 5ef0 7e3d
-0.06493492 -0.06676496 -0.274288 -0.03733049 0.32775417 0.00499155 -0.37659878 -0.1754535
-0.02426624 -0.2920938 -0.22953223 0.12983105 0.12903702 0.54923236 0.018173886 0.30802307
0.11642577 -0.41830513 0.23250279 0.25309837 -0.04483985 -0.061526302 -0.14177105 -0.11946154
0.014412037 0.18523881 -0.21721478 -0.08035123 -0.19766429 0.025072344 0.025780313 0.05538457
-0.4728741 0.012147884 0.031542882 -0.1796169 0.1321246 0.047795285 0.3558132 0.050128717
-0.09399824 -0.12307735 -0.21053608 0.07099777 0.20403838 0.025207302 -0.27322873 -0.10193949
0.010627198 0.039378677 0.11781718 -0.137737 0.050769005 0.2694349 -0.33032128 0.35631934
-0.19053684 -0.258921 -0.4056855 0.11120306 0.053775348 -0.102077655 -0.34040043 0.24773014
-0.08452475 -0.107098036 -0.35580847 -0.023528013 0.128393 0.006974779 -0.27398157 -0.07205692
0.026184602 -0.16802649 0.056310195 -0.0021509845 0.13370393 0.29245865 -0.12530074 0.18968734
0.03434668 -0.19915015 0.35177335 0.14686675 -0.18573675 -0.03611224 -0.18186045 0.010083988
-0.2150817 0.26795155 -0.103810914 -0.22874938 -0.015481863 0.028011369 -0.011656467 0.119458064
-0.12938403 -0.06839444 0.051727947 -0.06607468 0.022870908 -0.15273486 0.22664817 0.093841255
-0.007800203 -0.13378213 -0.3065391 0.049749386 0.20311186 -0.2291397 -0.25928497 -0.045931756
-0.009018098 0.1176288 -0.026837287 -0.20581755 0.14783025 0.2842876 -0.27310187 0.20771587
-0.05103778 -0.20312063 -0.35247508 0.116367884 -0.111381054 -0.022453018 -0.35066962 0.1343625
-0.00595489 0.04021056 0.23912346 0.004870828 0.029119225 0.075854585 0.090544894 -0.1075632
0.1787469 0.057405137 0.079489015 -0.0069091306 -0.0024201134 0.23464337 -0.1801376 0.16748145
0.08759752 0.23091698 -0.043372333 -0.046621915 0.05346759 -0.09444049 0.010578688 0.08183599
-0.1620886 0.17210162 -0.07383541 0.15452938 0.17052516 0.11970576 -0.04282348 -0.040544115
0.08113645 0.009402777 -0.020266563 -0.04218472 0.1443682 -0.00675324 -0.057139743 -0.05596044
0.15000297 -0.040156055 0.2104063 0.15372916 -0.0790918 0.11260364 0.15609927 -0.10908528
0.065014735 -0.17936984 -0.08325101 -0.15106964 -0.013855592 0.04339242 -0.12768194 0.063330755
0.017933223 -0.19942266 -0.080598325 -0.05850612 -0.011811271 0.15832318 0.044004824 -0.013700506
0.051942855 0.0055856262 -0.1345773 -0.056202736 0.2798771 0.009730796 -0.27044648 -0.09558698
-0.19032212 -0.15904367 -0.07717631 0.004187145 0.09370626 0.36916474 0.05845291 0.37806332
-0.0014563499 -0.30121934 0.2828438 0.0036385944 0.04065202 -0.060450576 -0.033596173 0.021169389
0.078483745 0.060354106 -0.10538663 0.08404617 -0.0683479 0.08610233 0.08814367 -0.01234969
-0.1245954 0.108198375 -0.013981649 -0.01638735 -0.0008272614 -0.01838879 0.27530903 0.21032386
-0.08262047 -0.10761862 -0.044409923 0.06787332 0.17713052 -0.094326496 -0.2510312 0.14031725
0.0559951 0.08679974 -0.0051220953 -0.24562877 0.017064437 0.20353408 -0.25503308 0.3137187
-0.07398427 -0.064077415 -0.38149506 0.17788213 0.008294032 0.069052555 -0.26189607 0.06224095

rnn.rnn.bias_ih_l0 f4 [192]
00000000: 02f0 8dbd 9baa 84be dcd5 19bd a516 8fbe
00000010: e553 403e ac83 60be 29c8 1c3d 8cd1 bcbe
00000020: 06c9 f0bd 757c e53d f94b 7fbe 4eea ec3b
00000030: 74c9 79be 4aba e53e 47ea c9be 561b ef3e
00000040: 544b 63be a8ad 603d a70f e03e d752 a4be
00000050: 48ea 6fbe 40cc 2cbe 7b71 7cbe a646 a8be
00000060: 924d a1be af0a a8be f6b9 3ebe c3c9 693c
00000070: 1052 b0be 50be a4be ada8 4abe 2be6 6dbd
00000080: b1e0 143e 913f 44be ef3d a3be ff40 83be
00000090: 83e6 993c 0a8c 5fbe 44e1 2d3e f9e2 95be
000000a0: 4bcd 90be 39c7 13be d435 51bd eea9 47be
000000b0: 4131 ad3d f523 7dbe ebcb 213e fbe0 b5be
000000c0: e20c d9be 92a5 3cbd 60bd 57be ff30 74bd
000000d0: 90c6 b7be 0db2 b63d c203 e63e a1e5 cc3c
000000e0: 1e61 b9be 4e93 4bbe f9dc ee3e 86aa 46be
000000f0: 01b1 b4be 0806 47bd 40da b93e 8555 91be
00000100: 54d2 08bf df3b a3be e9b2 fc3d c88d 2abe
00000110: 50d0 75be 84ef 99be c557 f2bd 5e24 5fbe
00000120: 07b3 33bf add0 04be 0d3d 96be 930f d7be
00000130: 3d3e 32be 3601 cebe 8367 9abe 41f0 b9be
00000140: 6f52 1fbe 6e00 eebb 7d74 23bf a3a7 55bc
00000150: f2bd c93c 3cea c2bd 2b18 24be 119b 26be
00000160: 6c5b 03be 0ee7 1abe 513f 123e 0da3 c4be
00000170: 5afe 9bbd e563 45be 0edf fdbe 412d d6be
00000180: 4c94 aabd c0f6 0dbf 5aea 35be 5eae bebd
00000190: 0d48 7fbe f0c8 6abe d9d5 14be 6fea 81be
000001a0: 4489 9fbe 79b9 98be 04ad cc3d fcee 57bd
000001b0: c6db 9a3c c5d8 1dbe 0cf3 dabd fed0 8dbe
000001c0: 0bf6 043d b60c 04bf c5b3 54be e746 6a3d
000001d0: 36ad 023d a6f6 643d 486f babe 0c17 83be
000001e0: 82f1 a1be 9735 f1bd 090c f3be 58e4 babe
000001f0: 9656 1ebe 8eec 18bf 0dc2 9ebe c77c d73d
00000200: 8d9e e33d c142 393e e592 343e 537a 253e
00000210: 9b04 333d 82e9 073d ab9b 143e 7584 d53d
00000220: 5bf6 b6bd 8e85 043e b125 383e 476b 213c
00000230: 62fd 83be 71b3 873d 97ac 043e 2e95 963d
00000240: 04ab 213e 5938 bd3d 24fa ab3d 90f4 4ebe
00000250: d9ef 6f3e 8817 82be faa1 bcbb f4e4 393d
00000260: 7a64 c93d 2de7 b9bd 7600 cc3c e67a b53e
00000270: 3b91 7a3e b700 503d 8349 80bd 3ee5 6ebc
00000280: d950 403d 2de3 8abd ec5b 41be e7c9 553e
00000290: 0e43 29bb 19ac b3bd b132 93bd c8be 11be
000002a0: db8e 9f3c d624 ddbd c8bc 213e 9dca 9abe
000002b0: 1a6e 2fba ed56 193e 4210 483d 0218 983d
000002c0: f3bb 56be ebb8 5d3e 900b 29be 733d bb3e
000002d0: fa4a febd 1874 9fbd 2a4a 72bb a98e 8cbe
000002e0: 809e 16bd 7d8a 4c3e 270d 1cbd 482c 1dbe
000002f0: 5343 413c eb33 473e b62b 02bb 3805 74be
-0.069305435 -0.25911412 -0.037557468 -0.27946964 0.18782003 -0.21925229 0.038276825 -0.36878622
-0.11757092 0.11205379 -0.24931325 0.0072300797 -0.24393255 0.4486869 -0.39436552 0.46700543
-0.22196704 0.05485311 0.43761942 -0.32094452 -0.23429215 -0.1687479 -0.24652664 -0.328664
-0.31504494 -0.3282065 -0.18625626 0.014269295 -0.3443761 -0.32176447 -0.19790907 -0.058080833
0.14538838 -0.19164874 -0.3188319 -0.25635526 0.018786674 -0.21830764 0.16980463 -0.2927473
-0.28281626 -0.14431466 -0.051076725 -0.19498417 0.0845666 -0.24720748 0.15800445 -0.3552321
-0.4239264 -0.046056338 -0.21068335 -0.05961704 -0.3589368 0.08920679 0.44924742 0.02501184
-0.36206907 -0.19880411 0.46652964 -0.19400987 -0.35291293 -0.048589736 0.36299324 -0.2838556
-0.53445935 -0.31881616 0.12338812 -0.16655648 -0.24005246 -0.30065548 -0.11833147 -0.21791217
-0.7019505 -0.12970228 -0.29343453 -0.4200407 -0.17406555 -0.402353 -0.30157098 -0.36316112
-0.1555879 -0.007263235 -0.6384962 -0.013040456 0.024626706 -0.09517333 -0.16024844 -0.1627009
-0.12827843 -0.15127203 0.14281966 -0.38405648 -0.07616873 -0.19276388 -0.4958424 -0.418314
-0.08329067 -0.55454636 -0.1776518 -0.09310602 -0.24929829 -0.22928214 -0.14534701 -0.2537417
-0.31159413 -0.29829004 0.099939376 -0.052718148 0.018903624 -0.15414722 -0.10690889 -0.2769851
0.032461207 -0.51581895 -0.20771702 0.057196524 0.031903468 0.055899285 -0.36413026 -0.2560352
-0.31629568 -0.117777996 -0.4747012 -0.36502337 -0.15462717 -0.59735954 -0.31007424 0.10521846
0.111142255 0.18091871 0.17634161 0.16159944 0.043705564 0.033181675 0.14512508 0.10425655
-0.08933707 0.12941572 0.17983128 0.009852237 -0.25779253 0.066260226 0.12956463 0.073526725
0.15787894 0.09239263 0.0839732 -0.2021048 0.23431338 -0.25408578 -0.005756614 0.045384362
0.098336175 -0.090772964 0.024902564 0.35445327 0.24469464 0.05078193 -0.06264021 -0.014581023
0.046952102 -0.067816116 -0.18882722 0.20877801 -0.0025827321 -0.087730594 -0.07187403 -0.14232934
0.019477298 -0.107980415 0.1579467 -0.30232707 -0.00066921266 0.14974566 0.04884363 0.07426454
-0.20970134 0.21652572 -0.16508317 0.3657032 -0.124166444 -0.07785815 -0.0036970475 -0.2745259
-0.03677225 0.19974704 -0.03809848 -0.15348923 0.0117958365 0.19453399 -0.001986248 -0.23830116

rnn.rnn.bias_hh_l0 f4 [192]
00000000: 02f0 8dbd 9baa 84be dcd5 19bd a516 8fbe
00000010: e553 403e ac83 60be 29c8 1c3d 8cd1 bcbe
00000020: 06c9 f0bd 757c e53d f94b 7fbe 4eea ec3b
00000030: 74c9 79be 4aba e53e 47ea c9be 561b ef3e
00000040: 544b 63be a8ad 603d a70f e03e d752 a4be
00000050: 48ea 6fbe 40cc 2cbe 7b71 7cbe a646 a8be
00000060: 924d a1be af0a a8be f6b9 3ebe c3c9 693c
00000070: 1052 b0be 50be a4be ada8 4abe 2be6 6dbd
00000080: b1e0 143e 913f 44be ef3d a3be ff40 83be
00000090: 83e6 993c 0a8c 5fbe 44e1 2d3e f9e2 95be
000000a0: 4bcd 90be 39c7 13be d435 51bd eea9 47be
000000b0: 4131 ad3d f523 7dbe ebcb 213e fbe0 b5be
000000c0: e20c d9be 92a5 3cbd 60bd 57be ff30 74bd
000000d0: 90c6 b7be 0db2 b63d c203 e63e a1e5 cc3c
000000e0: 1e61 b9be 4e93 4bbe f9dc ee3e 86aa 46be
000000f0: 01b1 b4be 0806 47bd 40da b93e 8555 91be
00000100: 54d2 08bf df3b a3be e9b2 fc3d c88d 2abe
00000110: 50d0 75be 84ef 99be c557 f2bd 5e24 5fbe
00000120: 07b3 33bf add0 04be 0d3d 96be 930f d7be
00000130: 3d3e 32be 3601 cebe 8367 9abe 41f0 b9be
00000140: 6f52 1fbe 6e00 eebb 7d74 23bf a3a7 55bc
00000150: f2bd c93c 3cea c2bd 2b18 24be 119b 26be
00000160: 6c5b 03be 0ee7 1abe 513f 123e 0da3 c4be
00000170: 5afe 9bbd e563 45be 0edf fdbe 412d d6be
00000180: 4c94 aabd c0f6 0dbf 5aea 35be 5eae bebd
00000190: 0d48 7fbe f0c8 6abe d9d5 14be 6fea 81be
000001a0: 4489 9fbe 79b9 98be 04ad cc3d fcee 57bd
000001b0: c6db 9a3c c5d8 1dbe 0cf3 dabd fed0 8dbe
000001c0: 0bf6 043d b60c 04bf c5b3 54be e746 6a3d
000001d0: 36ad 023d a6f6 643d 486f babe 0c17 83be
000001e0: 82f1 a1be 9735 f1bd 090c f3be 58e4 babe
000001f0: 9656 1ebe 8eec 18bf 0dc2 9ebe c77c d73d
00000200: c3ba eb3e ae3e 413e 3218 4e3b 0a98 ef3d
00000210: a812 073e 8920 983e 73fa a53d 61c9 4f3e
00000220: 9e0a babe d6c7 60bd e4d4 63be 8e15 1a3f
00000230: 04ca 293d b9bb 673c 0b1b 283e 73e9 cf3c
00000240: e52c 9b3d 50bc e4bc 0197 333d 54ac 3e3d
00000250: f5e7 44be 5e4d c63d c7c2 76be a40c 7c3e
00000260: a825 10be 0070 0abe ce5b a3be d1ae dc3e
00000270: 4675 b1bd a4f2 a13d 91c6 98be daf1 e0be
00000280: 2948 7bbd 00d9 b3be 9ecb ecbd b27e 353e
00000290: 39dd 813d 493b 92be c383 723d 9bb5 6bbe
000002a0: b866 27be 2b7c b7be 4ddf f23d 7f2a 693e
000002b0: d2b2 d73d c0fd 4a3e c0b2 aabd 6c3b bfbd
000002c0: a282 853d 0b6d da3e 095f 51be d1e2 863d
000002d0: 606d e4bd 56ed ba3c e59d 5a3d a3c9 d53e
000002e0: 39ea a23d 70fa 97bc 2998 74bb 4946 b6be
000002f0: 9e54 07be 4fcf f43e 7b50 b23b 399b bb3d
-0.069305435 -0.25911412 -0.037557468 -0.27946964 0.18782003 -0.21925229 0.038276825 -0.36878622
-0.11757092 0.11205379 -0.24931325 0.0072300797 -0.24393255 0.4486869 -0.39436552 0.46700543
-0.22196704 0.05485311 0.43761942 -0.32094452 -0.23429215 -0.1687479 -0.24652664 -0.328664
-0.31504494 -0.3282065 -0.18625626 0.014269295 -0.3443761 -0.32176447 -0.19790907 -0.058080833
0.14538838 -0.19164874 -0.3188319 -0.25635526 0.018786674 -0.21830764 0.16980463 -0.2927473
-0.28281626 -0.14431466 -0.051076725 -0.19498417 0.0845666 -0.24720748 0.15800445 -0.3552321
-0.4239264 -0.046056338 -0.21068335 -0.05961704 -0.3589368 0.08920679 0.44924742 0.02501184
-0.36206907 -0.19880411 0.46652964 -0.19400987 -0.35291293 -0.048589736 0.36299324 -0.2838556
-0.53445935 -0.31881616 0.12338812 -0.16655648 -0.24005246 -0.30065548 -0.11833147 -0.21791217
-0.7019505 -0.12970228 -0.29343453 -0.4200407 -0.17406555 -0.402353 -0.30157098 -0.36316112
-0.1555879 -0.007263235 -0.6384962 -0.013040456 0.024626706 -0.09517333 -0.16024844 -0.1627009
-0.12827843 -0.15127203 0.14281966 -0.38405648 -0.07616873 -0.19276388 -0.4958424 -0.418314
-0.08329067 -0.55454636 -0.1776518 -0.09310602 -0.24929829 -0.22928214 -0.14534701 -0.2537417
-0.31159413 -0.29829004 0.099939376 -0.052718148 0.018903624 -0.15414722 -0.10690889 -0.2769851
0.032461207 -0.51581895 -0.20771702 0.057196524 0.031903468 0.055899285 -0.36413026 -0.2560352
-0.31629568 -0.117777996 -0.4747012 -0.36502337 -0.15462717 -0.59735954 -0.31007424 0.10521846
0.46040925 0.18871567 0.0031447527 0.11698921 0.1319071 0.29712322 0.0810441 0.20291664
-0.36336225 -0.05487808 -0.2224918 0.6018914 0.041452423 0.014143878 0.16416566 0.025379872
0.07576922 -0.027921826 0.04384518 0.046551064 -0.1922911 0.09682725 -0.24097739 0.24614197
-0.14076865 -0.13519287 -0.3190598 0.43102124 -0.08664946 0.07907608 -0.29838994 -0.43934518
-0.061348114 -0.35126495 -0.115622744 0.17724112 0.06341023 -0.28560856 0.05920769 -0.23018496
-0.16347778 -0.3583692 0.118589975 0.22770117 0.10532154 0.1982336 -0.08334875 -0.09337506
0.06519057 0.42661318 -0.2044641 0.065862305 -0.11153674 0.022818249 0.053373236 0.417554
0.07954831 -0.018552035 -0.003732214 -0.35600498 -0.13215873 0.47814414 0.005441723 0.09160466

rnn.norm.weight f4 [64]
00000000: 7ff3 ac3f 2e23 9d3f 11cf 4d3f f876 2f3f
00000010: 6965 193f 6ef3 883f 31ef 333f 7581 983f
00000020: 45bb b93f ce42 193f b229 9f3f b09c ab3f
00000030: 705c 393f f2d1 153f 650c a23f adbd 093f
00000040: 7e37 303f 501f 183f 8dcd 613f 790f 983f
00000050: ae9f 543f ebff 813f 0eee a73f ee65 a13f
00000060: a4ee 823f a1d1 a23f db1c 8c3f 7ae2 843f
00000070: b6de a43f 09b9 683f 6b91 953f f938 b23f
00000080: ef9f fe3e ff1f ab3f 21b5 a13f dd00 b03f
00000090: cb90 dd3e 8b4c b83f 9450 103f 7841 993f
000000a0: 8151 773f 203a b53f 0655 323f ce86 913f
000000b0: 0907 db3e ff23 ba3f b124 ef3e aad9 a93f
000000c0: b10a 9c3f 9af9 c53f 36b4 893f bac5 453f
000000d0: 2ebe a43f 28aa 073f b350 173f 849a 3c3f
000000e0: d20c 8c3f 5aa0 843f 9ac7 353f 48e3 9f3f
000000f0: d085 9c3f 776f c53f dfb1 1b3f 0f8e 9f3f
1.3511809 1.2276361 0.80394083 0.68540907 0.59920365 1.0699289 0.7028685 1.1914507
1.4510275 0.5986756 1.2434599 1.3407192 0.72406673 0.58523476 1.2660033 0.5380505
0.68834674 0.5942278 0.8820427 1.1879722 0.8305615 1.0156225 1.3119524 1.2609231
1.0229077 1.2720224 1.0946306 1.0381615 1.2880466 0.9090734 1.1685003 1.3923637
0.49731395 1.336914 1.2633401 1.3750263 0.4327453 1.4398359 0.5637295 1.1973104
0.9660874 1.4158363 0.69660985 1.1369264 0.42778805 1.4542235 0.4670768 1.3269551
1.2190763 1.5466797 1.0758121 0.7725483 1.2870538 0.5299401 0.5910751 0.7367327
1.0941412 1.0361435 0.7100769 1.2491236 1.2228336 1.5424641 0.60818285 1.2465228

rnn.norm.bias f4 [64]
00000000: 51e0 c5bd cd8e 013d d9df a1bc 8066 e23d
00000010: d2b0 a93e d19f 84ba d3cb 35be e3bf 193e
00000020: 92aa ee3d 10b7 bbbe b001 2a3e 71ed dcbc
00000030: 97e1 4bbd e383 e03e d3cc 213d 3ce1 f73e
00000040: 29e7 473e 7ada 67be a699 433e 7bb9 b7be
00000050: a84c afbc 847c 6c3e 6be4 be3d 0c4b c7bc
00000060: ece9 3a3d 0660 5c3c 5027 0a3e 888b 9dbd
00000070: 7030 003e 15e8 f63d 8edf c53d 570b 283d
00000080: 000b 34be 0555 613d a6c7 81bd 312d 903e
00000090: 2c73 1b3f f90f c73d 50a3 703e 9f9d b5bd
000000a0: a484 833e 39d6 b13d 6b2d 9ebd 33cf e73d
000000b0: 3694 913e 8a2e 313e 37b6 89be 3b34 953e
000000c0: 1a4e f0bd 7b4f 713d faa3 12be a434 b63b
000000d0: 0e9f 6abe f8f4 cd3e 11a8 d2be 0043 fd3d
000000e0: 6284 f73d cb97 8b3c b35d bfbe fcf7 07bd
000000f0: 1bbb febc 3b1f 263d ff52 e7be 84fe 1fbe
-0.096619256 0.031630326 -0.01976006 0.110547066 0.33142716 -0.001011843 -0.17753534 0.15014605
0.116536275 -0.36663103 0.16602206 -0.02696869 -0.049775686 0.43850622 0.039501976 0.48414028
0.19521774 -0.22641936 0.19101581 -0.35883698 -0.021398857 0.23094374 0.09320911 -0.024327777
0.04563324 0.013450628 0.13491559 -0.07692629 0.12518477 0.12055985 0.0966178 0.04102644
-0.17582321 0.05501272 -0.06336908 0.28159478 0.60722613 0.097198434 0.23499799 -0.088679545
0.25687134 0.08683438 -0.077235065 0.11318817 0.28433388 0.1730291 -0.2689683 0.2914141
-0.11733647 0.05891369 -0.14320365 0.0055604745 -0.22912237 0.4022596 -0.4114385 0.12366295
0.12085797 0.017040154 -0.37376174 -0.03319548 -0.031095078 0.040557127 -0.45180508 -0.15624434
